…
":"ok","timestamp":1686652346465,"user_tz":-330,"elapsed":16,"user":{"displayName":"Shailendra Sharma","userId":"16253538974018428715"}},"outputId":"de9277b8-7062-47b1-a9e7-4a90bbd2c277"},"source":["# View the summary of all layers\n","model.summary()"],"execution_count":15,"outputs":[{"output_type":"stream","name":"stdout","text":["Model: \"sequential\"\n","_________________________________________________________________\n"," Layer (type)                Output Shape              Param #   \n","=================================================================\n"," rescaling (Rescaling)       (None, 180, 180, 3)       0         \n","                                                                 \n"," conv2d (Conv2D)             (None, 178, 178, 32)      896       \n","                                                                 \n"," max_pooling2d (MaxPooling2D  (None, 89, 89, 32)       0         \n"," )                                                               \n","                                                                 \n"," conv2d_1 (Conv2D)           (None, 87, 87, 32)        9248      \n","                                                                 \n"," max_pooling2d_1 (MaxPooling  (None, 43, 43, 32)       0         \n"," 2D)                                                             \n","                                                                 \n"," conv2d_2 (Conv2D)           (None, 41, 41, 32)        9248      \n","                                                                 \n"," max_pooling2d_2 (MaxPooling  (None, 20, 20, 32)       0         \n"," 2D)                                                             \n","                                                                 \n"," flatten (Flatten)           (None, 12800)             0         \n","                                                                 \n"," dense (Dense)               (None, 128)               1638528   \n","                                                                 \n"," dense_1 (Dense)             (None, 9)                 1161      \n","                                                                 \n","=================================================================\n","Total params: 1,659,081\n","Trainable params: 1,659,081\n","Non-trainable params: 0\n","_________________________________________________________________\n"]}]},{"cell_type":"markdown","metadata":{"id":"ljD_83rwSl5O"},"source":["### Train the model"
…
